VP_HPKG/isqrt/model.pkl (torch, 12405 bytes, 15 tensors)

weight f4 [3, 2]
000000 40 9e ae bd 70 2c 33 3e 60 e8 a1 3d 60 b7 eb 3d
       -0.085262775 0.1749742 0.0790565 0.115095854
000010 3c 18 8d 3e 24 1e a2 be
       0.27557552 -0.3166362

bias f4 [2]
000000 00 00 00 00 00 00 00 00
       0.0 0.0

residual_w f4 [7, 2]
000000 29 7c 01 c0 b4 72 14 c0 cb b9 cc bf 01 6b da bf
       -2.0232031 -2.319501 -1.59942 -1.7063905
000010 f1 c3 d9 3e 1d 33 12 3f 4f 36 81 3e a9 0e 4d 3e
       0.42532304 0.5710924 0.25236747 0.20025124
000020 0d 01 8b bf 43 6d 9c bf 41 f2 7a be b5 24 4d bd
       -1.0859696 -1.2220844 -0.24506475 -0.050083835
000030 af d5 ab be c6 c9 b5 be
       -0.33561465 -0.35505503

W f4 [1, 7, 2]
000000 38 da 07 a4 b5 50 f3 3e 10 7f 10 80 2a ce ff bf
       -2.9458297e-17 0.47522512 -1.51495e-39 -1.9984791
000010 b4 9a aa b4 b0 49 1a c0 ed 39 00 80 aa 62 87 be
       -3.177753e-07 -2.4107475 -2.078e-41 -0.26442462
000020 9e 18 00 80 10 fe 54 bf 92 33 01 80 ca b5 23 3c
       -8.831e-42 -0.8320017 -1.10335e-40 0.009992072
000030 38 7b 5b b9 29 c0 50 3d
       -0.0002093137 0.05096451

W f4 [1, 7, 2]
000000 5a 86 00 80 3f 11 53 bf a1 00 09 00 66 4e 63 3f
       -4.8196e-41 -0.8244819 8.26745e-40 0.887915
000010 50 11 79 b6 1a 0d a2 3f cb d7 00 80 ec b4 b4 3e
       -3.7113969e-06 1.2660248 -7.7412e-41 0.35294282
000020 da 58 00 80 4b 60 dc 3e b4 04 00 00 a0 8d 96 3e
       -3.1874e-41 0.43042216 1.687e-42 0.29404926
000030 91 a2 01 00 9c 85 24 40
       1.50153e-40 2.5706549

W f4 [1, 7, 2]
000000 a3 8d 70 3f 07 60 45 3f cd 61 45 3f 53 56 58 bf
       0.9396612 0.7709965 0.7710236 -0.8450672
000010 3d 42 7f bf 50 88 27 c0 9b 51 22 3f ab 88 ef bf
       -0.99710447 -2.6176949 0.6340577 -1.8713583
000020 77 72 c0 be e9 82 23 bf 2c 5d 34 3e 34 f9 95 3f
       -0.3758733 -0.6387163 0.17613667 1.1716676
000030 02 e8 1f bf 4d f5 d3 3f
       -0.6246339 1.6559235

W f4 [1, 2, 2]
000000 73 90 a9 3f c4 f7 ba 3f 47 ae 2b 40 09 3b 40 40
       1.3247207 1.4606862 2.682512 3.0036032

0 f4 [5]
000000 5c 30 00 80 cc 07 00 00 84 57 00 80 97 5e 00 80
       -1.7348e-41 2.797e-42 -3.1395e-41 -3.3932e-41
000010 29 1b 00 80
       -9.743e-42

1 f4 [5]
000000 fb 9b 2b 38 e2 43 0f 40 e3 03 01 80 40 75 00 00
       4.0914845e-05 2.2385182 -9.323e-41 4.2061e-41
000010 1c 42 2a 40
       2.660285

W f4 [5, 1, 1]
000000 e5 de 00 00 22 75 00 00 5a a0 00 80 bb 46 00 00
       7.996e-41 4.202e-41 -5.7523e-41 2.5373e-41
000010 62 a2 00 00
       5.8252e-41

W f4 [5, 1, 1]
000000 89 9c 2b b8 34 c1 0c c0 36 5a 00 80 7e fa 00 80
       -4.091536e-05 -2.1992922 -3.2362e-41 -8.986e-41
000010 1b 42 2a c0
       -2.6602848

W f4 [5, 1, 1]
000000 09 88 74 3f e8 95 55 bf c6 a9 0c 3a 2b 00 f1 3b
       0.95520073 -0.83431864 0.00053658744 0.0073547564
000010 35 d0 c7 3f
       1.5610415

W f4 [5, 1, 1]
000000 79 b2 36 bd 28 0a 73 c0 54 66 a8 b8 5b fc 19 bf
       -0.0446038 -3.797495 -8.029924e-05 -0.6015069
000010 11 75 7d bf
       -0.99006754

weight f4 [2, 2]
000000 94 09 36 40 9b df 4a 40 02 0a 36 c0 a0 df 4a c0
       2.8443346 3.1698978 -2.8443608 -3.169899

bias f4 [2]
000000 52 96 b6 bf 94 e9 b6 3f
       -1.4264624 1.4290032
