VP_HPKG/datamanager/model.pkl (torch, 18997 bytes, 15 tensors)

weight f4 [3, 2]
000000 40 9e ae bd 70 2c 33 3e 60 e8 a1 3d 60 b7 eb 3d
       -0.085262775 0.1749742 0.0790565 0.115095854
000010 3c 18 8d 3e 24 1e a2 be
       0.27557552 -0.3166362

bias f4 [2]
000000 00 00 00 00 00 00 00 00
       0.0 0.0

residual_w f4 [7, 2]
000000 eb a1 be 3d df ef b6 3d 19 5d 61 3c 84 1f 9c 3c
       0.09308227 0.089324705 0.013755106 0.019057997
000010 54 dd 94 3c 0a b2 c0 3c c9 0e 89 bb b3 4b 91 3a
       0.018171944 0.023522396 -0.0041826707 0.0011085182
000020 29 3d aa 3c c8 a5 c1 3c c2 d0 6e 3a a3 ae 1c 3c
       0.020781117 0.023638621 0.0009110087 0.009563121
000030 e2 47 5c bd 3a 4a 63 bd
       -0.05377949 -0.05549071

W f4 [1, 7, 2]
000000 28 8f 1a 00 9d 58 e9 3f 18 02 00 00 7c 6f ab 3e
       2.439078e-39 1.8230168 7.51e-43 0.33483493
000010 e5 c2 39 00 c9 68 0e bf da d5 00 80 80 c1 b6 bf
       5.304538e-39 -0.5562864 -7.6715e-41 -1.4277802
000020 c4 2b 00 00 d1 b6 ed 3e d3 2f 00 80 a7 cc 6d 3f
       1.57e-41 0.4642854 -1.7156e-41 0.928904
000030 6f b3 85 2e 5a 8c 2f 3f
       6.0800136e-11 0.68573534

W f4 [1, 7, 2]
000000 58 62 00 00 d8 dc a1 bf ed 85 00 80 6f f2 39 3f
       3.5279e-41 -1.2645521 -4.8044e-41 0.7263555
000010 62 cd 0f 00 94 41 8b 3f 45 4b 0d 80 af 99 ea 3e
       1.45121e-39 1.0879388 -1.220863e-39 0.45820376
000020 c1 65 01 80 d5 e3 b4 bf 07 4c 00 80 15 45 90 bf
       -1.28338e-40 -1.4132029 -2.7273e-41 -1.1271082
000030 08 99 01 00 22 b8 36 bf
       1.46733e-40 -0.71374714

W f4 [1, 7, 2]
000000 bc a8 20 c0 41 35 93 bf 3e c9 c3 bf 8a 4c ee bf
       -2.5102987 -1.1500627 -1.5295789 -1.8617108
000010 90 20 64 bd 1b e5 8c bf 61 28 23 3f 3c 1c d5 bf
       -0.055695117 -1.1007417 0.6373349 -1.6649241
000020 96 d8 e6 be 73 c6 01 bf 06 68 b3 bf 75 7a 25 3f
       -0.45087117 -0.50693434 -1.401612 0.6463998
000030 64 40 0e c0 23 05 18 3c
       -2.22268 0.009278568

W f4 [1, 2, 2]
000000 53 f2 3d 40 c6 df 25 40 91 a9 1e 40 4f 90 0a 40
       2.9679153 2.591783 2.4790995 2.165058

0 f4 [5]
000000 8a 38 00 80 99 12 00 00 a1 0e 00 00 c5 1f 00 00
       -2.0282e-41 6.672e-42 5.248e-42 1.1397e-41
000010 04 4e 00 80
       -2.7987e-41

1 f4 [5]
000000 e5 ac 64 3e c4 e9 cf 3f a1 0e 00 00 7a d7 00 00
       0.22331579 1.6243215 5.248e-42 7.7298e-41
000010 fd 0c f5 3f
       1.9144589

W f4 [5, 1, 1]
000000 f3 42 01 00 2f 2f 00 80 de a1 00 80 0b 02 01 80
       1.15852e-40 -1.6926e-41 -5.8067e-41 -9.2568e-41
000010 ed ee 00 00
       8.571e-41

W f4 [5, 1, 1]
000000 e3 a5 64 be 86 16 ce 3f 0f 2a 00 80 f2 6d 00 00
       -0.22328906 1.6100624 -1.5088e-41 3.9441e-41
000010 b7 82 f4 bf
       -1.9102391

W f4 [5, 1, 1]
000000 65 74 0f 3f c6 cc a5 3f 0f 9b ac 3f 28 0d 08 40
       0.5603698 1.2953117 1.348482 2.125803
000010 5a 98 41 c0
       -3.0249238

W f4 [5, 1, 1]
000000 01 36 34 bf 68 fd 3d c0 1d 9b 26 3f 84 83 83 be
       -0.70394903 -2.9685917 0.65080434 -0.25686276
000010 b3 b8 51 3f
       0.81922454

weight f4 [2, 2]
000000 b8 26 31 40 25 ba 1b 40 ef e8 30 c0 fa b9 1b c0
       2.7679882 2.4332364 -2.7642171 -2.433226

bias f4 [2]
000000 80 7f 78 bf 43 1d 79 3f
       -0.9706955 0.97310275
