VP_HPKG/Dij/model.pkl (torch, 35637 bytes, 15 tensors)

weight f4 [3, 2]
0	0xbdae9e40	-0.085262775
1	0x3e332c70	0.1749742
2	0x3da1e860	0.0790565
3	0x3debb760	0.115095854
4	0x3e8d183c	0.27557552
5	0xbea21e24	-0.3166362

bias f4 [2]
0	0x00000000	0.0
1	0x00000000	0.0

residual_w f4 [7, 2]
0	0x402b982e	2.6811633
1	0xbeaaadd6	-0.3333575
2	0xbe81d74e	-0.25359577
3	0x3fa8bc53	1.3182472
4	0x3e907a42	0.28218275
5	0x3e74e57d	0.23915668
6	0x3f0c4f7c	0.54808784
7	0x3f467915	0.77528507
8	0x3ec46e55	0.38365427
9	0xbf6efdec	-0.93356204
10	0xbe615ccb	-0.22008054
11	0x3edd9f49	0.43285587
12	0x3f16d1f0	0.5891409
13	0xbedf399d	-0.43598643

W f4 [1, 7, 2]
0	0x0039e3cd	5.316343e-39
1	0x0008ffbd	8.26426e-40
2	0x8001163a	-9.9809e-41
3	0x80002e33	-1.6573e-41
4	0x8037b625	-5.116293e-39
5	0x802142cf	-3.054538e-39
6	0x8000486d	-2.5981e-41
7	0x80040342	-3.6851e-40
8	0x0000aa7c	6.1158e-41
9	0x8000ad0b	-6.2076e-41
10	0x000166cc	1.28712e-40
11	0x80018f04	-1.4314e-40
12	0x9c082ce3	-4.505664e-22
13	0x800137a7	-1.118e-40

W f4 [1, 7, 2]
0	0x00007937	4.3484e-41
1	0x8000add4	-6.2358e-41
2	0x0000a8ef	6.0602e-41
3	0x0000591a	3.1964e-41
4	0x80054963	-4.85504e-40
5	0x0000b930	6.6433e-41
6	0x8017885b	-2.161132e-39
7	0x80011fb7	-1.03213e-40
8	0x0000b697	6.5501e-41
9	0x00253f24	3.420564e-39
10	0x0000a3c2	5.8745e-41
11	0x80014d56	-1.19578e-40
12	0x8000a237	-5.8192e-41
13	0x80006f9d	-4.004e-41

W f4 [1, 7, 2]
0	0x3ea0f915	0.31440035
1	0x3f5dee6f	0.86691946
2	0xbb609843	-0.0034270443
3	0xbf8b5166	-1.0884216
4	0xbe759b55	-0.23985036
5	0xbf258970	-0.6466284
6	0x3dc1da1d	0.0946543
7	0x3e80902a	0.25109988
8	0x3e7dcb82	0.24784663
9	0x3f55561b	0.8333451
10	0xc029c780	-2.6528015
11	0xbfc7afa6	-1.5600479
12	0xbfd844bc	-1.6895976
13	0x3f864225	1.0488936

W f4 [1, 2, 2]
0	0xbfc1693f	-1.5110244
1	0x403299b1	2.7906306
2	0xc017c8f7	-2.371641
3	0xbf804c7f	-1.0023345

0 f4 [5]
0	0x00000070	1.57e-43
1	0x800026e8	-1.3957e-41
2	0x80003185	-1.7764e-41
3	0x80003792	-1.9935e-41
4	0x80000bdc	-4.254e-42

1 f4 [5]
0	0x00005ae0	3.26e-41
1	0x0000aa88	6.1175e-41
2	0x0000054d	1.902e-42
3	0x80002618	-1.3665e-41
4	0x00007893	4.3254e-41

W f4 [5, 1, 1]
0	0x0000601c	3.4478e-41
1	0x00001a08	9.338e-42
2	0x8000a252	-5.823e-41
3	0x800153c3	-1.21884e-40
4	0x0001372f	1.11632e-40

W f4 [5, 1, 1]
0	0x000197df	1.46317e-40
1	0x00005a75	3.245e-41
2	0x80002082	-1.1662e-41
3	0x0000cb70	7.298e-41
4	0x00003434	1.8727e-41

W f4 [5, 1, 1]
0	0x400b0c6f	2.172634
1	0x3f7a7360	0.978323
2	0xbe0317b8	-0.12802017
3	0x40045d32	2.0681882
4	0xbe87bcce	-0.26511234

W f4 [5, 1, 1]
0	0xbea3c6d2	-0.31987625
1	0xc01d4336	-2.4572272
2	0xbf2ae8fb	-0.6676175
3	0xbdaf2838	-0.08552593
4	0x3e5101d6	0.20410857

weight f4 [2, 2]
0	0xc0356488	-2.834261
1	0x40203c8e	2.503696
2	0x40357be8	2.8356876
3	0xc0203c8e	-2.503696

bias f4 [2]
0	0x3e8ac6f0	0.27104902
1	0xbe33b0f5	-0.17547973
