VP_HPKG/bfs/model.pkl (torch, 15989 bytes, 15 tensors)

weight f4 [3, 2]
00000000: 409e aebd 702c 333e 60e8 a13d 60b7 eb3d
00000010: 3c18 8d3e 241e a2be
-0.085262775 0.1749742 0.0790565 0.115095854 0.27557552 -0.3166362

bias f4 [2]
00000000: 0000 0000 0000 0000
0.0 0.0

residual_w f4 [7, 2]
00000000: b240 1040 79f3 ce3f 8abf eebe 9efa e5be
00000010: 507f f8be 7e6b ff3d 2011 dcbe ea5a b8bf
00000020: 9639 143f 5763 1abf deef bebf 3ee5 21c0
00000030: a843 2340 3d81 aac0
2.2539487 1.6168052 -0.46630508 -0.44917768 -0.48534632 0.124716744 -0.42981815 -1.4402745
0.5790037 -0.6030783 -1.4916952 -2.5296168 2.5510044 -5.328276

W f4 [1, 7, 2]
00000000: d42d 1180 d914 0180 08a6 0100 7232 0000
00000010: 0402 2400 cd30 1880 474c 0000 315f 0000
00000020: 3863 0080 c36e 0100 a32e 0000 d617 0180
00000030: d2dd 91a3 9801 0780
-1.577643e-39 -9.9314e-41 1.51396e-40 1.8096e-41 3.306801e-39 -2.221558e-39 2.7363e-41 3.4148e-41
-3.5593e-41 1.3157e-40 1.673e-41 -1.00386e-40 -1.5814876e-17 -6.4342e-40

W f4 [1, 7, 2]
00000000: 5d33 0080 5a7e 0000 5a13 0000 3145 0080
00000010: 5295 0e00 d199 0180 fcc5 0a80 10b6 0000
00000020: 236e 0180 d388 0480 eea7 0000 bf58 0380
00000030: ab3f 0100 ae94 0100
-1.8426e-41 4.5326e-41 6.942e-42 -2.4821e-41 1.339263e-39 -1.47014e-40 -9.89378e-40 6.5312e-41
-1.31345e-40 -4.16425e-40 6.0242e-41 -3.07343e-40 1.14675e-40 1.45172e-40

W f4 [1, 7, 2]
00000000: 6944 7a3f 80e0 02bf f8b2 5dbf 3fdf f43f
00000010: 1624 f1be 55f0 b7bf 7167 39bf c764 4b3d
00000020: c2f7 a7bf 2428 9fbf 2ae6 0040 cc8f 7ebf
00000030: 0af4 c6bf eda9 b8bf
0.97760636 -0.5112381 -0.8660121 1.9130629 -0.47097844 -1.4370219 -0.72423464 0.049656656
-1.3122485 -1.2434125 2.014048 -0.99438167 -1.5543225 -1.4426857

W f4 [1, 2, 2]
00000000: 4f39 5040 4696 b23d 3f1f 4e40 1337 f03d
3.2534978 0.08720069 3.220657 0.117292546

0 f4 [5]
00000000: cb3b 0080 1a11 0080 ca21 0080 f41c 0080
00000010: f71c 0080
-2.145e-41 -6.135e-42 -1.2121e-41 -1.0386e-41 -1.039e-41

1 f4 [5]
00000000: 530a 0080 d93d 0000 0811 0080 5221 0080
00000010: 1e2f 0080
-3.704e-42 2.2187e-41 -6.11e-42 -1.1953e-41 -1.6902e-41

W f4 [5, 1, 1]
00000000: 294a 0000 36f1 0000 a6c2 0080 e6ec 0080
00000010: a1c0 0000
2.6604e-41 8.653e-41 -6.9827e-41 -8.4983e-41 6.9102e-41

W f4 [5, 1, 1]
00000000: 2b33 0180 3c94 0000 914a 0080 95b4 0000
00000010: d661 0000
-1.10191e-40 5.3176e-41 -2.675e-41 6.478e-41 3.5097e-41

W f4 [5, 1, 1]
00000000: b05e 0a40 2882 51bf af99 803f b3ef 8b3c
00000010: bf30 01c0
2.1620293 -0.8183923 1.00469 0.017082071 -2.0186002

W f4 [5, 1, 1]
00000000: 92c8 cbbf f302 21c0 c8b8 7d3e 56d9 713f
00000010: 4304 4dbf
-1.5920584 -2.515805 0.2477752 0.94472253 -0.8008463

weight f4 [2, 2]
00000000: 2bc3 87c0 92b8 8ec0 2bc8 8740 85b8 8e40
-4.242574 -4.4600306 4.2431846 4.4600244

bias f4 [2]
00000000: 2dd9 a53f eada 98bf
1.2956902 -1.1941807
