VP_HPKG/Qsort/model.pkl (torch, 12341 bytes, 15 tensors)

weight f4 [3, 2]
00000000: 409e aebd 702c 333e 60e8 a13d 60b7 eb3d
00000010: 3c18 8d3e 241e a2be
-0.085262775 0.1749742 0.0790565 0.115095854 0.27557552 -0.3166362

bias f4 [2]
00000000: 0000 0000 0000 0000
0.0 0.0

residual_w f4 [7, 2]
00000000: c742 5b3e 8b37 843e 7b73 9dbd 1e31 adbd
00000010: 4571 d3bc 1da1 f0bc 2358 89be fa17 aabe
00000020: 8c90 89bf 1ba8 a5bf f9a4 90bd e7f7 a8bd
00000030: a732 0d3d d8fe 213d
0.21412192 0.25823626 -0.07688042 -0.08456634 -0.025810847 -0.0293737 -0.26825055 -0.33221418
-1.0747237 -1.2941927 -0.07062716 -0.082504086 0.034472134 0.03954968

W f4 [1, 7, 2]
00000000: 6232 0180 fe9d a6bf 4a78 0080 7676 57bb
00000010: 62a2 1900 f1b8 b73f bce3 0000 4fa2 febe
00000020: 9fb8 0000 15cf a6bf 04a1 0100 3837 fe3f
00000030: d469 bba3 ce45 36bf
-1.0991e-40 -1.3016965 -4.3152e-41 -0.0032877005 2.35414e-39 1.4353315 8.1696e-41 -0.49733207
6.623e-41 -1.3031946 1.49597e-40 1.9860601 -2.03194e-17 -0.71200264

W f4 [1, 7, 2]
00000000: e4ff 0080 722a 13bf c169 0080 4bc3 b93f
00000010: 6003 0100 0aad bc3f 045c 0800 aada 323f
00000020: 51ad 0080 97d6 a1be 8424 0000 b2a8 00c0
00000030: eb18 0000 907e 18bc
-9.1796e-41 -0.5748664 -3.7937e-41 1.4512724 9.3046e-41 1.4740307 7.67693e-40 0.69864905
-6.2174e-41 -0.31609032 1.31e-41 -2.0102963 8.939e-42 -0.009307519

W f4 [1, 7, 2]
00000000: fc43 f33f b14c 1cbe 5fc8 06bf 493c 6d3f
00000010: 08b5 29bf 8b0a c93f 355e 5d3f 4835 933f
00000020: 29b9 5e3f d438 8fbf 5d00 dfbe d817 4140
00000030: aad4 bc3e 7235 d2bf
1.9005122 -0.1526363 -0.5264949 0.9267011 -0.66291857 1.5706342 0.86471874 1.1500635
0.8700128 -1.1189218 -0.43554965 3.0170803 0.36881 -1.642256

W f4 [1, 2, 2]
00000000: cb41 f43f 4c6f 1040 5bb6 2840 f099 4740
1.9082578 2.256793 2.63613 3.1187706

0 f4 [4]
00000000: 9c20 0080 a135 0080 ab34 0080 2a49 0080
-1.1698e-41 -1.9238e-41 -1.8894e-41 -2.6246e-41

1 f4 [4]
00000000: 7f02 2e40 67a2 adbe 0317 013f e86c 8c3f
2.7189023 -0.33912966 0.5042574 1.0970736

W f4 [4, 1, 1]
00000000: f4e8 0000 2309 0080 76cf 0080 7e64 0180
8.3568e-41 -3.278e-42 -7.4423e-41 -1.27885e-40

W f4 [4, 1, 1]
00000000: 3401 2e40 71af b1be 930d 013f 9fc0 8c3f
2.7188234 -0.34704164 0.5041134 1.0996283

W f4 [4, 1, 1]
00000000: d509 d1bf f0a6 e9bf 87ea 92be bc45 f3bf
-1.6331125 -1.825407 -0.28694555 -1.9005656

W f4 [4, 1, 1]
00000000: 9724 26c0 df93 3440 d9fd cdbd e04b e3be
-2.5959833 2.8215253 -0.10058183 -0.44393826

weight f4 [2, 2]
00000000: fdd8 1d40 84f3 3b40 24d8 1dc0 65f3 3bc0
2.466369 2.936738 -2.4663172 -2.9367306

bias f4 [2]
00000000: 53aa 29c0 37f1 2b40
-2.6510208 2.6865976
