VP_HPKG/rad2deg/model.pkl (torch, 11125 bytes, 15 tensors)

weight f4 [3, 2]
-0.085262775 0.1749742 0.0790565 0.115095854 0.27557552 -0.3166362
00000000: 409e aebd 702c 333e 60e8 a13d 60b7 eb3d
00000010: 3c18 8d3e 241e a2be

bias f4 [2]
0.0 0.0
00000000: 0000 0000 0000 0000

residual_w f4 [7, 2]
0.53039 0.6474948 0.14882015 0.22208397 0.0575779 0.17898211 0.49502307 0.11417194
0.5545085 0.3212858 -0.055862352 0.14520179 -0.03613763 0.0820135
00000000: a4c7 073f 38c2 253f 4f64 183e fb69 633e
00000010: ced6 6b3d 1647 373e aa73 fd3e fad2 e93d
00000020: 45f4 0d3f 937f a43e eccf 64bd c7af 143e
00000030: 0d05 14bd b2f6 a73d

W f4 [1, 7, 2]
-2.7108668e-10 -1.570493 -1.1515773e-05 -1.1315906 6.644091e-07 -0.8816043 -3.9216903e-07 0.07524933
0.028283676 -0.4681636 1.9951485e-06 -0.14045727 2.0042765e-07 0.027221123
00000000: 0f08 95af ea05 c9bf de33 41b7 f6d7 90bf
00000010: d859 3235 d2b0 61bf 4d8b d2b4 521c 9a3d
00000020: 2bb3 e73c 24b3 efbe 64e4 0536 08d4 0fbe
00000030: 2235 5734 d5fe de3c

W f4 [1, 7, 2]
-0.016219836 -0.076404765 -0.0010323242 1.0078541 1.0582062e-06 1.2464093 -0.0040168753 -1.4181598
2.6536675e-09 -0.34114826 2.5134057e-07 0.078825444 3.012403e-08 0.34300685
00000000: 76df 84bc 1a7a 9cbd 0d4f 87ba 5d01 813f
00000010: b007 8e35 578a 9f3f fe9f 83bb 4386 b5bf
00000020: d05b 3631 fcaa aebe fcef 8634 3c6f a13d
00000030: b961 0133 989e af3e

W f4 [1, 7, 2]
0.08718316 -0.19382353 0.4032901 -1.3321931 -1.1148525 -1.598665 0.8678055 0.5805755
0.4180532 1.3938353 -2.1691709 0.7217838 -1.7812347 -0.0055784336
00000000: 168d b23d ad79 46be 0a7c ce3e 4e85 aabf
00000010: 7db3 8ebf 0ea1 ccbf 8028 5e3f 99a0 143f
00000020: 120b d63e 3269 b23f b2d3 0ac0 d3c6 383f
00000030: 80ff e3bf 4bcb b6bb

W f4 [1, 2, 2]
2.291172 -2.1227176 2.2885792 -0.5135924
00000000: 90a2 1240 9bda 07c0 1578 1240 cb7a 03bf

0 f4 [5]
5.749419e-06 -8.0332e-41 9.5232e-41 0.012715767 -1.132e-42
00000000: 22eb c036 efdf 0080 7809 0100 cb55 503c
00000010: 2803 0080

1 f4 [5]
-1.44143e-40 2.17456 -1.34938e-40 -1.0376e-40 4.4816e-41
00000000: d091 0180 fe2b 0b40 2778 0180 3e21 0180
00000010: ee7c 0000

W f4 [5, 1, 1]
-2.697789e-05 -1.6489e-41 8.6457e-41 0.019041952 1.8787e-41
00000000: 944e e2b7 f72d 0080 02f1 0000 defd 9b3c
00000010: 5f34 0000

W f4 [5, 1, 1]
1.31026e-40 2.174383 -3.0232e-41 8.0971e-41 -1.2211e-41
00000000: 3f6d 0100 1729 0b40 4654 0080 b7e1 0000
00000010: 0a22 0080

W f4 [5, 1, 1]
2.0581398 1.8544464 -0.95320165 -1.0935304 0.25855085
00000000: 90b8 0340 805e ed3f 0605 74bf cef8 8bbf
00000010: c760 843e

W f4 [5, 1, 1]
0.8951017 -2.1265743 -0.17097086 0.6063827 0.80835843
00000000: 6325 653f cb19 08c0 fc12 2fbe e63b 1b3f
00000010: 94f0 4e3f

weight f4 [2, 2]
2.3830063 -1.7300149 -2.3811383 1.7299715
00000000: 2d83 1840 2171 ddbf 9264 18c0 b56f dd3f

bias f4 [2]
-0.6610353 0.70733446
00000000: 9c39 29bf df13 353f
